…
    min_lr=0.0,
    by_epoch=False)
runner = dict(type='IterBasedRunner', max_iters=160000)
checkpoint_config = dict(by_epoch=False, interval=16000)
evaluation = dict(interval=16000, metric='mIoU')
work_dir = 'rsxl-henei-128'
gpu_ids = [3]

2022-03-07 08:52:49,090 - mmseg - INFO - Use load_from_local loader
2022-03-07 08:52:49,710 - mmseg - WARNING - The model and loaded state dict do not match exactly

unexpected key in source state_dict: head.weight, head.bias

2022-03-07 08:52:49,728 - mmseg - INFO - EncoderDecoder(
  (backbone): van_large(
    (patch_embed1): OverlapPatchEmbed(
      (proj): Conv2d(3, 64, kernel_size=(7, 7), stride=(4, 4), padding=(3, 3))
      (norm): BatchNorm2d(64, eps=1e-05, momentum=0.1, affine=True, track_running_stats=True)
    )
    (block1): ModuleList(
      (0): Block(
        (norm1): BatchNorm2d(64, eps=1e-05, momentum=0.1, affine=True, track_running_stats=True)
        (attn): SpatialAttention(
          (proj_1): Conv2d(64, 64, kernel_size=(1, 1), stride=(1, 1))
          (activation): GELU()
          (spatial_gating_unit): AttentionModule(
            (conv0): Conv2d(64, 64, kernel_size=(5, 5), stride=(1, 1), padding=(2, 2), groups=64)
            (conv_spatial): Conv2d(64, 64, kernel_size=(7, 7), stride=(1, 1), padding=(9, 9), dilation=(3, 3), groups=64)
            (conv1): Conv2d(64, 64, kernel_size=(1, 1), stride=(1, 1))
          )
          (proj_2): Conv2d(64, 64, kernel_size=(1, 1), stride=(1, 1))
        )
        (drop_path): Identity()
        (norm2): BatchNorm2d(64, eps=1e-05, momentum=0.1, affine=True, track_running_stats=True)
        (mlp): Mlp(
          (fc1): Conv2d(64, 512, kernel_size=(1, 1), stride=(1, 1))
          (dwconv): DWConv(
            (dwconv): Conv2d(512, 512, kernel_size=(3, 3), stride=(1, 1), padding=(1, 1), groups=512)
          )
          (act): GELU()
          (fc2): Conv2d(512, 64, kernel_size=(1, 1), stride=(1, 1))
          (drop): Dropout(p=0.0, inplace=False)
        )
      )
      (1): Block(
        (norm1): BatchNorm2d(64, eps=1e-05, momentum=0.1, affine=True, track_running_stats=True)
        (attn): SpatialAttention(
          (proj_1): Conv2d(64, 64, kernel_size=(1, 1), stride=(1, 1))
          (activation): GELU()
          (spatial_gating_unit): AttentionModule(
            (conv0): Conv2d(64, 64, kernel_size=(5, 5), stride=(1, 1), padding=(2, 2), groups=64)
            (conv_spatial): Conv2d(64, 64, kernel_size=(7, 7), stride=(1, 1), padding=(9, 9), dilation=(3, 3), groups=64)
            (conv1): Conv2d(64, 64, kernel_size=(1, 1), stride=(1, 1))
          )
          (proj_2): Conv2d(64, 64, kernel_size=(1, 1), stride=(1, 1))
        )
        (drop_path): DropPath()
        (norm2): BatchNorm2d(64, eps=1e-05, momentum=0.1, affine=True, track_running_stats=True)
        (mlp): Mlp(
          (fc1): Conv2d(64, 512, kernel_size=(1, 1), stride=(1, 1))
          (dwconv): DWConv(
            (dwconv): Conv2d(512, 512, kernel_size=(3, 3), stride=(1, 1), padding=(1, 1), groups=512)
          )
          (act): GELU()
          (fc2): Conv2d(512, 64, kernel_size=(1, 1), stride=(1, 1))
          (drop): Dropout(p=0.0, inplace=False)
        )
      )
      (2): Block(
        (norm1): BatchNorm2d(64, eps=1e-05, momentum=0.1, affine=True, track_running_stats=True)
        (attn): SpatialAttention(
          (proj_1): Conv2d(64, 64, kernel_size=(1, 1), stride=(1, 1))
          (activation): GELU()
          (spatial_gating_unit): AttentionModule(
            (conv0): Conv2d(64, 64, kernel_size=(5, 5), stride=(1, 1), padding=(2, 2), groups=64)
            (conv_spatial): Conv2d(64, 64, kernel_size=(7, 7), stride=(1, 1), padding=(9, 9), dilation=(3, 3), groups=64)
            (conv1): Conv2d(64, 64, kernel_size=(1, 1), stride=(1, 1))
          )
          (proj_2): Conv2d(64, 64, kernel_size=(1, 1), stride=(1, 1))
        )
        (drop_path): DropPath()
        (norm2): BatchNorm2d(64, eps=1e-05, momentum=0.1, affine=True, track_running_stats=True)
        (mlp): Mlp(
          (fc1): Conv2d(64, 512, kernel_size=(1, 1), stride=(1, 1))
          (dwconv): DWConv(
            (dwconv): Conv2d(512, 512, kernel_size=(3, 3), stride=(1, 1), padding=(1, 1), groups=512)
          )
          (act): GELU()
          (fc2): Conv2d(512, 64, kernel_size=(1, 1), stride=(1, 1))
          (drop): Dropout(p=0.0, inplace=False)
        )
      )
    )
    (norm1): LayerNorm((64,), eps=1e-06, elementwise_affine=True)
    (patch_embed2): OverlapPatchEmbed(
      (proj): Conv2d(64, 128, kernel_size=(3, 3), stride=(2, 2), padding=(1, 1))
      (norm): BatchNorm2d(128, eps=1e-05, momentum=0.1, affine=True, track_running_stats=True)
    )
    (block2): ModuleList(
      (0): Block(
        (norm1): BatchNorm2d(128, eps=1e-05, momentum=0.1, affine=True, track_running_stats=True)
        (attn): SpatialAttention(
          (proj_1): Conv2d(128, 128, kernel_size=(1, 1), stride=(1, 1))
          (activation): GELU()
          (spatial_gating_unit): AttentionModule(
            (conv0): Conv2d(128, 128, kernel_size=(5, 5), stride=(1, 1), padding=(2, 2), groups=128)
            (conv_spatial): Conv2d(128, 128, kernel_size=(7, 7), stride=(1, 1), padding=(9, 9), dilation=(3, 3), groups=128)
            (conv1): Conv2d(128, 128, kernel_size=(1, 1), stride=(1, 1))
          )
          (proj_2): Conv2d(128, 128, kernel_size=(1, 1), stride=(1, 1))
        )
        (drop_path): DropPath()
        (norm2): BatchNorm2d(128, eps=1e-05, momentum=0.1, affine=True, track_running_stats=True)
        (mlp): Mlp(
          (fc1): Conv2d(128, 1024, kernel_size=(1, 1), stride=(1, 1))
          (dwconv): DWConv(
            (dwconv): Conv2d(1024, 1024, kernel_size=(3, 3), stride=(1, 1), padding=(1, 1), groups=1024)
          )
          (act): GELU()
          (fc2): Conv2d(1024, 128, kernel_size=(1, 1), stride=(1, 1))
          (drop): Dropout(p=0.0, inplace=False)
        )
      )
      (1): Block(
        (norm1): BatchNorm2d(128, eps=1e-05, momentum=0.1, affine=True, track_running_stats=True)
        (attn): SpatialAttention(
          (proj_1): Conv2d(128, 128, kernel_size=(1, 1), stride=(1, 1))
          (activation): GELU()
          (spatial_gating_unit): AttentionModule(
            (conv0): Conv2d(128, 128, kernel_size=(5, 5), stride=(1, 1), padding=(2, 2), groups=128)
            (conv_spatial): Conv2d(128, 128, kernel_size=(7, 7), stride=(1, 1), padding=(9, 9), dilation=(3, 3), groups=128)
            (conv1): Conv2d(128, 128, kernel_size=(1, 1), stride=(1, 1))
          )
          (proj_2): Conv2d(128, 128, kernel_size=(1, 1), stride=(1, 1))
        )
        (drop_path): DropPath()
        (norm2): BatchNorm2d(128, eps=1e-05, momentum=0.1, affine=True, track_running_stats=True)
        (mlp): Mlp(
          (fc1): Conv2d(128, 1024, kernel_size=(1, 1), stride=(1, 1))
          (dwconv): DWConv(
            (dwconv): Conv2d(1024, 1024, kernel_size=(3, 3), stride=(1, 1), padding=(1, 1), groups=1024)
          )
          (act): GELU()
          (fc2): Conv2d(1024, 128, kernel_size=(1, 1), stride=(1, 1))
          (drop): Dropout(p=0.0, inplace=False)
        )
      )
      (2): Block(
        (norm1): BatchNorm2d(128, eps=1e-05, momentum=0.1, affine=True, track_running_stats=True)
        (attn): SpatialAttention(
          (proj_1): Conv2d(128, 128, kernel_size=(1, 1), stride=(1, 1))
          (activation): GELU()
          (spatial_gating_unit): AttentionModule(
            (conv0): Conv2d(128, 128, kernel_size=(5, 5), stride=(1, 1), padding=(2, 2), groups=128)
            (conv_spatial): Conv2d(128, 128, kernel_size=(7, 7), stride=(1, 1), padding=(9, 9), dilation=(3, 3), groups=128)
            (conv1): Conv2d(128, 128, kernel_size=(1, 1), stride=(1, 1))
          )
          (proj_2): Conv2d(128, 128, kernel_size=(1, 1), stride=(1, 1))
        )
        (drop_path): DropPath()
        (norm2): BatchNorm2d(128, eps=1e-05, momentum=0.1, affine=True, track_running_stats=True)
        (mlp): Mlp(
          (fc1): Conv2d(128, 1024, kernel_size=(1, 1), stride=(1, 1))
          (dwconv): DWConv(
            (dwconv): Conv2d(1024, 1024, kernel_size=(3, 3), stride=(1, 1), padding=(1, 1), groups=1024)
          )
          (act): GELU()
          (fc2): Conv2d(1024, 128, kernel_size=(1, 1), stride=(1, 1))
          (drop): Dropout(p=0.0, inplace=False)
        )
      )
      (3): Block(
        (norm1): BatchNorm2d(128, eps=1e-05, momentum=0.1, affine=True, track_running_stats=True)
        (attn): SpatialAttention(
          (proj_1): Conv2d(128, 128, kernel_size=(1, 1), stride=(1, 1))
          (activation): GELU()
          (spatial_gating_unit): AttentionModule(
            (conv0): Conv2d(128, 128, kernel_size=(5, 5), stride=(1, 1), padding=(2, 2), groups=128)
            (conv_spatial): Conv2d(128, 128, kernel_size=(7, 7), stride=(1, 1), padding=(9, 9), dilation=(3, 3), groups=128)
            (conv1): Conv2d(128, 128, kernel_size=(1, 1), stride=(1, 1))
          )
          (proj_2): Conv2d(128, 128, kernel_size=(1, 1), stride=(1, 1))
        )
        (drop_path): DropPath()
        (norm2): BatchNorm2d(128, eps=1e-05, momentum=0.1, affine=True, track_running_stats=True)
        (mlp): Mlp(
          (fc1): Conv2d(128, 1024, kernel_size=(1, 1), stride=(1, 1))
          (dwconv): DWConv(
            (dwconv): Conv2d(1024, 1024, kernel_size=(3, 3), stride=(1, 1), padding=(1, 1), groups=1024)
          )
          (act): GELU()
          (fc2): Conv2d(1024, 128, kernel_size=(1, 1), stride=(1, 1))
          (drop): Dropout(p=0.0, inplace=False)
        )
      )
      (4): Block(
        (norm1): BatchNorm2d(128, eps=1e-05, momentum=0.1, affine=True, track_running_stats=True)
        (attn): SpatialAttention(
          (proj_1): Conv2d(128, 128, kernel_size=(1, 1), stride=(1, 1))
          (activation): GELU()
          (spatial_gating_unit): AttentionModule(
            (conv0): Conv2d(128, 128, kernel_size=(5, 5), stride=(1, 1), padding=(2, 2), groups=128)
            (conv_spatial): Conv2d(128, 128, kernel_size=(7, 7), stride=(1, 1), padding=(9, 9), dilation=(3, 3), groups=128)
            (conv1): Conv2d(128, 128, kernel_size=(1, 1), stride=(1, 1))
          )
          (proj_2): Conv2d(128, 128, kernel_size=(1, 1), stride=(1, 1))
        )
        (drop_path): DropPath()
        (norm2): BatchNorm2d(128, eps=1e-05, momentum=0.1, affine=True, track_running_stats=True)
        (mlp): Mlp(
          (fc1): Conv2d(128, 1024, kernel_size=(1, 1), stride=(1, 1))
          (dwconv): DWConv(
            (dwconv): Conv2d(1024, 1024, kernel_size=(3, 3), stride=(1, 1), padding=(1, 1), groups=1024)
          )
          (act): GELU()
          (fc2): Conv2d(1024, 128, kernel_size=(1, 1), stride=(1, 1))
          (drop): Dropout(p=0.0, inplace=False)
        )
      )
    )
    (norm2): LayerNorm((128,), eps=1e-06, elementwise_affine=True)
    (patch_embed3): OverlapPatchEmbed(
      (proj): Conv2d(128, 320, kernel_size=(3, 3), stride=(2, 2), padding=(1, 1))
      (norm): BatchNorm2d(320, eps=1e-05, momentum=0.1, affine=True, track_running_stats=True)
    )
    (block3): ModuleList(
      (0): Block(
        (norm1): BatchNorm2d(320, eps=1e-05, momentum=0.1, affine=True, track_running_stats=True)
        (attn): SpatialAttention(
          (proj_1): Conv2d(320, 320, kernel_size=(1, 1), stride=(1, 1))
          (activation): GELU()
          (spatial_gating_unit): AttentionModule(
            (conv0): Conv2d(320, 320, kernel_size=(5, 5), stride=(1, 1), padding=(2, 2), groups=320)
            (conv_spatial): Conv2d(320, 320, kernel_size=(7, 7), stride=(1, 1), padding=(9, 9), dilation=(3, 3), groups=320)
            (conv1): Conv2d(320, 320, kernel_size=(1, 1), stride=(1, 1))
          )
          (proj_2): Conv2d(320, 320, kernel_size=(1, 1), stride=(1, 1))
        )
        (drop_path): DropPath()
        (norm2): BatchNorm2d(320, eps=1e-05, momentum=0.1, affine=True, track_running_stats=True)
        (mlp): Mlp(
          (fc1): Conv2d(320, 1280, kernel_size=(1, 1), stride=(1, 1))
          (dwconv): DWConv(
            (dwconv): Conv2d(1280, 1280, kernel_size=(3, 3), stride=(1, 1), padding=(1, 1), groups=1280)
          )
          (act): GELU()
          (fc2): Conv2d(1280, 320, kernel_size=(1, 1), stride=(1, 1))
          (drop): Dropout(p=0.0, inplace=False)
        )
      )
      (1): Block(
        (norm1): BatchNorm2d(320, eps=1e-05, momentum=0.1, affine=True, track_running_stats=True)
        (attn): SpatialAttention(
          (proj_1): Conv2d(320, 320, kernel_size=(1, 1), stride=(1, 1))
          (activation): GELU()
          (spatial_gating_unit): AttentionModule(
            (conv0): Conv2d(320, 320, kernel_size=(5, 5), stride=(1, 1), padding=(2, 2), groups=320)
            (conv_spatial): Conv2d(320, 320, kernel_size=(7, 7), stride=(1, 1), padding=(9, 9), dilation=(3, 3), groups=320)
            (conv1): Conv2d(320, 320, kernel_size=(1, 1), stride=(1, 1))
          )
          (proj_2): Conv2d(320, 320, kernel_size=(1, 1), stride=(1, 1))
        )
        (drop_path): DropPath()
        (norm2): BatchNorm2d(320, eps=1e-05, momentum=0.1, affine=True, track_running_stats=True)
        (mlp): Mlp(
          (fc1): Conv2d(320, 1280, kernel_size=(1, 1), stride=(1, 1))
          (dwconv): DWConv(
            (dwconv): Conv2d(1280, 1280, kernel_size=(3, 3), stride=(1, 1), padding=(1, 1), groups=1280)
          )
          (act): GELU()
          (fc2): Conv2d(1280, 320, kernel_size=(1, 1), stride=(1, 1))
          (drop): Dropout(p=0.0, inplace=False)
        )
      )
      (2): Block(
        (norm1): BatchNorm2d(320, eps=1e-05, momentum=0.1, affine=True, track_running_stats=True)
        (attn): SpatialAttention(
          (proj_1): Conv2d(320, 320, kernel_size=(1, 1), stride=(1, 1))
          (activation): GELU()
          (spatial_gating_unit): AttentionModule(
            (conv0): Conv2d(320, 320, kernel_size=(5, 5), stride=(1, 1), padding=(2, 2), groups=320)
            (conv_spatial): Conv2d(320, 320, kernel_size=(7, 7), stride=(1, 1), padding=(9, 9), dilation=(3, 3), groups=320)
            (conv1): Conv2d(320, 320, kernel_size=(1, 1), stride=(1, 1))
          )
          (proj_2): Conv2d(320, 320, kernel_size=(1, 1), stride=(1, 1))
        )
        (drop_path): DropPath()
        (norm2): BatchNorm2d(320, eps=1e-05, momentum=0.1, affine=True, track_running_stats=True)
        (mlp): Mlp(
          (fc1): Conv2d(320, 1280, kernel_size=(1, 1), stride=(1, 1))
          (dwconv): DWConv(
            (dwconv): Conv2d(1280, 1280, kernel_size=(3, 3), stride=(1, 1), padding=(1, 1), groups=1280)
          )
          (act): GELU()
          (fc2): Conv2d(1280, 320, kernel_size=(1, 1), stride=(1, 1))
          (drop): Dropout(p=0.0, inplace=False)
        )
      )
      (3): Block(
        (norm1): BatchNorm2d(320, eps=1e-05, momentum=0.1, affine=True, track_running_stats=True)
        (attn): SpatialAttention(
          (proj_1): Conv2d(320, 320, kernel_size=(1, 1), stride=(1, 1))
          (activation): GELU()
          (spatial_gating_unit): AttentionModule(
            (conv0): Conv2d(320, 320, kernel_size=(5, 5), stride=(1, 1), padding=(2, 2), groups=320)
            (conv_spatial): Conv2d(320, 320, kernel_size=(7, 7), stride=(1, 1), padding=(9, 9), dilation=(3, 3), groups=320)
            (conv1): Conv2d(320, 320, kernel_size=(1, 1), stride=(1, 1))
          )
          (proj_2): Conv2d(320, 320, kernel_size=(1, 1), stride=(1, 1))
        )
        (drop_path): DropPath()
        (norm2): BatchNorm2d(320, eps=1e-05, momentum=0.1, affine=True, track_running_stats=True)
        (mlp): Mlp(
          (fc1): Conv2d(320, 1280, kernel_size=(1, 1), stride=(1, 1))
          (dwconv): DWConv(
            (dwconv): Conv2d(1280, 1280, kernel_size=(3, 3), stride=(1, 1), padding=(1, 1), groups=1280)
          )
          (act): GELU()
          (fc2): Conv2d(1280, 320, kernel_size=(1, 1), stride=(1, 1))
          (drop): Dropout(p=0.0, inplace=False)
        )
      )
      (4): Block(
        (norm1): BatchNorm2d(320, eps=1e-05, momentum=0.1, affine=True, track_running_stats=True)
        (attn): SpatialAttention(
          (proj_1): Conv2d(320, 320, kernel_size=(1, 1), stride=(1, 1))
          (activation): GELU()
          (spatial_gating_unit): AttentionModule(
            (conv0): Conv2d(320, 320, kernel_size=(5, 5), stride=(1, 1), padding=(2, 2), groups=320)
            (conv_spatial): Conv2d(320, 320, kernel_size=(7, 7), stride=(1, 1), padding=(9, 9), dilation=(3, 3), groups=320)
            (conv1): Conv2d(320, 320, kernel_size=(1, 1), stride=(1, 1))
          )
          (proj_2): Conv2d(320, 320, kernel_size=(1, 1), stride=(1, 1))
        )
        (drop_path): DropPath()
        (norm2): BatchNorm2d(320, eps=1e-05, momentum=0.1, affine=True, track_running_stats=True)
        (mlp): Mlp(
          (fc1): Conv2d(320, 1280, kernel_size=(1, 1), stride=(1, 1))
          (dwconv): DWConv(
            (dwconv): Conv2d(1280, 1280, kernel_size=(3, 3), stride=(1, 1), padding=(1, 1), groups=1280)
          )
          (act): GELU()
          (fc2): Conv2d(1280, 320, kernel_size=(1, 1), stride=(1, 1))
          (drop): Dropout(p=0.0, inplace=False)
        )
      )
      (5): Block(
        (norm1): BatchNorm2d(320, eps=1e-05, momentum=0.1, affine=True, track_running_stats=True)
        (attn): SpatialAttention(
          (proj_1): Conv2d(320, 320, kernel_size=(1, 1), stride=(1, 1))
          (activation): GELU()
          (spatial_gating_unit): AttentionModule(
            (conv0): Conv2d(320, 320, kernel_size=(5, 5), stride=(1, 1), padding=(2, 2), groups=320)
            (conv_spatial): Conv2d(320, 320, kernel_size=(7, 7), stride=(1, 1), padding=(9, 9), dilation=(3, 3), groups=320)
            (conv1): Conv2d(320, 320, kernel_size=(1, 1), stride=(1, 1))
          )
          (proj_2): Conv2d(320, 320, kernel_size=(1, 1), stride=(1, 1))
        )
        (drop_path): DropPath()
        (norm2): BatchNorm2d(320, eps=1e-05, momentum=0.1, affine=True, track_running_stats=True)
        (mlp): Mlp(
          (fc1): Conv2d(320, 1280, kernel_size=(1, 1), stride=(1, 1))
          (dwconv): DWConv(
            (dwconv): Conv2d(1280, 1280, kernel_size=(3, 3), stride=(1, 1), padding=(1, 1), groups=1280)
          )
          (act): GELU()
          (fc2): Conv2d(1280, 320, kernel_size=(1, 1), stride=(1, 1))
          (drop): Dropout(p=0.0, inplace=False)
        )
      )
      (6): Block(
        (norm1): BatchNorm2d(320, eps=1e-05, momentum=0.1, affine=True, track_running_stats=True)
        (attn): SpatialAttention(
          (proj_1): Conv2d(320, 320, kernel_size=(1, 1), stride=(1, 1))
          (activation): GELU()
          (spatial_gating_unit): AttentionModule(
            (conv0): Conv2d(320, 320, kernel_size=(5, 5), stride=(1, 1), padding=(2, 2), groups=320)
            (conv_spatial): Conv2d(320, 320, kernel_size=(7, 7), stride=(1, 1), padding=(9, 9), dilation=(3, 3), groups=320)
            (conv1): Conv2d(320, 320, kernel_size=(1, 1), stride=(1, 1))
          )
          (proj_2): Conv2d(320, 320, kernel_size=(1, 1), stride=(1, 1))
        )
        (drop_path): DropPath()
        (norm2): BatchNorm2d(320, eps=1e-05, momentum=0.1, affine=True, track_running_stats=True)
        (mlp): Mlp(
          (fc1): Conv2d(320, 1280, kernel_size=(1, 1), stride=(1, 1))
          (dwconv): DWConv(
            (dwconv): Conv2d(1280, 1280, kernel_size=(3, 3), stride=(1, 1), padding=(1, 1), groups=1280)
          )
          (act): GELU()
          (fc2): Conv2d(1280, 320, kernel_size=(1, 1), stride=(1, 1))
          (drop): Dropout(p=0.0, inplace=False)
        )
      )
      (7): Block(
        (norm1): BatchNorm2d(320, eps=1e-05, momentum=0.1, affine=True, track_running_stats=True)
        (attn): SpatialAttention(
          (proj_1): Conv2d(320, 320, kernel_size=(1, 1), stride=(1, 1))
          (activation): GELU()
          (spatial_gating_unit): AttentionModule(
            (conv0): Conv2d(320, 320, kernel_size=(5, 5), stride=(1, 1), padding=(2, 2), groups=320)
            (conv_spatial): Conv2d(320, 320, kernel_size=(7, 7), stride=(1, 1), padding=(9, 9), dilation=(3, 3), groups=320)
            (conv1): Conv2d(320, 320, kernel_size=(1, 1), stride=(1, 1))
          )
          (proj_2): Conv2d(320, 320, kernel_size=(1, 1), stride=(1, 1))
        )
        (drop_path): DropPath()
        (norm2): BatchNorm2d(320, eps=1e-05, momentum=0.1, affine=True, track_running_stats=True)
        (mlp): Mlp(
          (fc1): Conv2d(320, 1280, kernel_size=(1, 1), stride=(1, 1))
          (dwconv): DWConv(
            (dwconv): Conv2d(1280, 1280, kernel_size=(3, 3), stride=(1, 1), padding=(1, 1), groups=1280)
          )
          (act): GELU()
          (fc2): Conv2d(1280, 320, kernel_size=(1, 1), stride=(1, 1))
          (drop): Dropout(p=0.0, inplace=False)
        )
      )
      (8): Block(
        (norm1): BatchNorm2d(320, eps=1e-05, momentum=0.1, affine=True, track_running_stats=True)
        (attn): SpatialAttention(
          (proj_1): Conv2d(320, 320, kernel_size=(1, 1), stride=(1, 1))
          (activation): GELU()
          (spatial_gating_unit): AttentionModule(
            (conv0): Conv2d(320, 320, kernel_size=(5, 5), stride=(1, 1), padding=(2, 2), groups=320)
            (conv_spatial): Conv2d(320, 320, kernel_size=(7, 7), stride=(1, 1), padding=(9, 9), dilation=(3, 3), groups=320)
            (conv1): Conv2d(320, 320, kernel_size=(1, 1), stride=(1, 1))
          )
          (proj_2): Conv2d(320, 320, kernel_size=(1, 1), stride=(1, 1))
        )
        (drop_path): DropPath()
        (norm2): BatchNorm2d(320, eps=1e-05, momentum=0.1, affine=True, track_running_stats=True)
        (mlp): Mlp(
          (fc1): Conv2d(320, 1280, kernel_size=(1, 1), stride=(1, 1))
          (dwconv): DWConv(
            (dwconv): Conv2d(1280, 1280, kernel_size=(3, 3), stride=(1, 1), padding=(1, 1), groups=1280)
          )
          (act): GELU()
          (fc2): Conv2d(1280, 320, kernel_size=(1, 1), stride=(1, 1))
          (drop): Dropout(p=0.0, inplace=False)
        )
      )
      (9): Block(
        (norm1): BatchNorm2d(320, eps=1e-05, momentum=0.1, affine=True, track_running_stats=True)
        (attn): SpatialAttention(
          (proj_1): Conv2d(320, 320, kernel_size=(1, 1), stride=(1, 1))
          (activation): GELU()
          (spatial_gating_unit): AttentionModule(
            (conv0): Conv2d(320, 320, kernel_size=(5, 5), stride=(1, 1), padding=(2, 2), groups=320)
            (conv_spatial): Conv2d(320, 320, kernel_size=(7, 7), stride=(1, 1), padding=(9, 9), dilation=(3, 3), groups=320)
            (conv1): Conv2d(320, 320, kernel_size=(1, 1), stride=(1, 1))
          )
          (proj_2): Conv2d(320, 320, kernel_size=(1, 1), stride=(1, 1))
        )
        (drop_path): DropPath()
        (norm2): BatchNorm2d(320, eps=1e-05, momentum=0.1, affine=True, track_running_stats=True)
        (mlp): Mlp(
          (fc1): Conv2d(320, 1280, kernel_size=(1, 1), stride=(1, 1))
          (dwconv): DWConv(
            (dwconv): Conv2d(1280, 1280, kernel_size=(3, 3), stride=(1, 1), padding=(1, 1), groups=1280)
          )
          (act): GELU()
          (fc2): Conv2d(1280, 320, kernel_size=(1, 1), stride=(1, 1))
          (drop): Dropout(p=0.0, inplace=False)
        )
      )
      (10): Block(
        (norm1): BatchNorm2d(320, eps=1e-05, momentum=0.1, affine=True, track_running_stats=True)
        (attn): SpatialAttention(
          (proj_1): Conv2d(320, 320, kernel_size=(1, 1), stride=(1, 1))
          (activation): GELU()
          (spatial_gating_unit): AttentionModule(
            (conv0): Conv2d(320, 320, kernel_size=(5, 5), stride=(1, 1), padding=(2, 2), groups=320)
            (conv_spatial): Conv2d(320, 320, kernel_size=(7, 7), stride=(1, 1), padding=(9, 9), dilation=(3, 3), groups=320)
            (conv1): Conv2d(320, 320, kernel_size=(1, 1), stride=(1, 1))
          )
          (proj_2): Conv2d(320, 320, kernel_size=(1, 1), stride=(1, 1))
        )
        (drop_path): DropPath()
        (norm2): BatchNorm2d(320, eps=1e-05, momentum=0.1, affine=True, track_running_stats=True)
        (mlp): Mlp(
          (fc1): Conv2d(320, 1280, kernel_size=(1, 1), stride=(1, 1))
          (dwconv): DWConv(
            (dwconv): Conv2d(1280, 1280, kernel_size=(3, 3), stride=(1, 1), padding=(1, 1), groups=1280)
          )
          (act): GELU()
          (fc2): Conv2d(1280, 320, kernel_size=(1, 1), stride=(1, 1))
          (drop): Dropout(p=0.0, inplace=False)
        )
      )
      (11): Block(
        (norm1): BatchNorm2d(320, eps=1e-05, momentum=0.1, affine=True, track_running_stats=True)
        (attn): SpatialAttention(
          (proj_1): Conv2d(320, 320, kernel_size=(1, 1), stride=(1, 1))
          (activation): GELU()
          (spatial_gating_unit): AttentionModule(
            (conv0): Conv2d(320, 320, kernel_size=(5, 5), stride=(1, 1), padding=(2, 2), groups=320)
            (conv_spatial): Conv2d(320, 320, kernel_size=(7, 7), stride=(1, 1), padding=(9, 9), dilation=(3, 3), groups=320)
            (conv1): Conv2d(320, 320, kernel_size=(1, 1), stride=(1, 1))
          )
          (proj_2): Conv2d(320, 320, kernel_size=(1, 1), stride=(1, 1))
        )
        (drop_path): DropPath()
        (norm2): BatchNorm2d(320, eps=1e-05, momentum=0.1, affine=True, track_running_stats=True)
        (mlp): Mlp(
          (fc1): Conv2d(320, 1280, kernel_size=(1, 1), stride=(1, 1))
          (dwconv): DWConv(
            (dwconv): Conv2d(1280, 1280, kernel_size=(3, 3), stride=(1, 1), padding=(1, 1), groups=1280)
          )
          (act): GELU()
          (fc2): Conv2d(1280, 320, kernel_size=(1, 1), stride=(1, 1))
          (drop): Dropout(p=0.0, inplace=False)
        )
      )
      (12): Block(
        (norm1): BatchNorm2d(320, eps=1e-05, momentum=0.1, affine=True, track_running_stats=True)
        (attn): SpatialAttention(
          (proj_1): Conv2d(320, 320, kernel_size=(1, 1), stride=(1, 1))
          (activation): GELU()
          (spatial_gating_unit): AttentionModule(
            (conv0): Conv2d(320, 320, kernel_size=(5, 5), stride=(1, 1), padding=(2, 2), groups=320)
            (conv_spatial): Conv2d(320, 320, kernel_size=(7, 7), stride=(1, 1), padding=(9, 9), dilation=(3, 3), groups=320)
            (conv1): Conv2d(320, 320, kernel_size=(1, 1), stride=(1, 1))
          )
          (proj_2): Conv2d(320, 320, kernel_size=(1, 1), stride=(1, 1))
        )
        (drop_path): DropPath()
        (norm2): BatchNorm2d(320, eps=1e-05, momentum=0.1, affine=True, track_running_stats=True)
        (mlp): Mlp(
          (fc1): Conv2d(320, 1280, kernel_size=(1, 1), stride=(1, 1))
          (dwconv): DWConv(
            (dwconv): Conv2d(1280, 1280, kernel_size=(3, 3), stride=(1, 1), padding=(1, 1), groups=1280)
          )
          (act): GELU()
          (fc2): Conv2d(1280, 320, kernel_size=(1, 1), stride=(1, 1))
          (drop): Dropout(p=0.0, inplace=False)
        )
      )
      (13): Block(
        (norm1): BatchNorm2d(320, eps=1e-05, momentum=0.1, affine=True, track_running_stats=True)
        (attn): SpatialAttention(
          (proj_1): Conv2d(320, 320, kernel_size=(1, 1), stride=(1, 1))
          (activation): GELU()
          (spatial_gating_unit): AttentionModule(
            (conv0): Conv2d(320, 320, kernel_size=(5, 5), stride=(1, 1), padding=(2, 2), groups=320)
            (conv_spatial): Conv2d(320, 320, kernel_size=(7, 7), stride=(1, 1), padding=(9, 9), dilation=(3, 3), groups=320)
            (conv1): Conv2d(320, 320, kernel_size=(1, 1), stride=(1, 1))
          )
          (proj_2): Conv2d(320, 320, kernel_size=(1, 1), stride=(1, 1))
        )
        (drop_path): DropPath()
        (norm2): BatchNorm2d(320, eps=1e-05, momentum=0.1, affine=True, track_running_stats=True)
        (mlp): Mlp(
          (fc1): Conv2d(320, 1280, kernel_size=(1, 1), stride=(1, 1))
          (dwconv): DWConv(
            (dwconv): Conv2d(1280, 1280, kernel_size=(3, 3), stride=(1, 1), padding=(1, 1), groups=1280)
          )
          (act): GELU()
          (fc2): Conv2d(1280, 320, kernel_size=(1, 1), stride=(1, 1))
          (drop): Dropout(p=0.0, inplace=False)
        )
      )
      (14): Block(
        (norm1): BatchNorm2d(320, eps=1e-05, momentum=0.1, affine=True, track_running_stats=True)
        (attn): SpatialAttention(
          (proj_1): Conv2d(320, 320, kernel_size=(1, 1), stride=(1, 1))
          (activation): GELU()
          (spatial_gating_unit): AttentionModule(
            (conv0): Conv2d(320, 320, kernel_size=(5, 5), stride=(1, 1), padding=(2, 2), groups=320)
            (conv_spatial): Conv2d(320, 320, kernel_size=(7, 7), stride=(1, 1), padding=(9, 9), dilation=(3, 3), groups=320)
            (conv1): Conv2d(320, 320, kernel_size=(1, 1), stride=(1, 1))
          )
          (proj_2): Conv2d(320, 320, kernel_size=(1, 1), stride=(1, 1))
        )
        (drop_path): DropPath()
        (norm2): BatchNorm2d(320, eps=1e-05, momentum=0.1, affine=True, track_running_stats=True)
        (mlp): Mlp(
          (fc1): Conv2d(320, 1280, kernel_size=(1, 1), stride=(1, 1))
          (dwconv): DWConv(
            (dwconv): Conv2d(1280, 1280, kernel_size=(3, 3), stride=(1, 1), padding=(1, 1), groups=1280)
          )
          (act): GELU()
          (fc2): Conv2d(1280, 320, kernel_size=(1, 1), stride=(1, 1))
          (drop): Dropout(p=0.0, inplace=False)
        )
      )
      (15): Block(
        (norm1): BatchNorm2d(320, eps=1e-05, momentum=0.1, affine=True, track_running_stats=True)
        (attn): SpatialAttention(
          (proj_1): Conv2d(320, 320, kernel_size=(1, 1), stride=(1, 1))
          (activation): GELU()
          (spatial_gating_unit): AttentionModule(
            (conv0): Conv2d(320, 320, kernel_size=(5, 5), stride=(1, 1), padding=(2, 2), groups=320)
            (conv_spatial): Conv2d(320, 320, kernel_size=(7, 7), stride=(1, 1), padding=(9, 9), dilation=(3, 3), groups=320)
            (conv1): Conv2d(320, 320, kernel_size=(1, 1), stride=(1, 1))
          )
          (proj_2): Conv2d(320, 320, kernel_size=(1, 1), stride=(1, 1))
        )
        (drop_path): DropPath()
        (norm2): BatchNorm2d(320, eps=1e-05, momentum=0.1, affine=True, track_running_stats=True)
        (mlp): Mlp(
          (fc1): Conv2d(320, 1280, kernel_size=(1, 1), stride=(1, 1))
          (dwconv): DWConv(
            (dwconv): Conv2d(1280, 1280, kernel_size=(3, 3), stride=(1, 1), padding=(1, 1), groups=1280)
          )
          (act): GELU()
          (fc2): Conv2d(1280, 320, kernel_size=(1, 1), stride=(1, 1))
          (drop): Dropout(p=0.0, inplace=False)
        )
      )
      (16): Block(
        (norm1): BatchNorm2d(320, eps=1e-05, momentum=0.1, affine=True, track_running_stats=True)
        (attn): SpatialAttention(
          (proj_1): Conv2d(320, 320, kernel_size=(1, 1), stride=(1, 1))
          (activation): GELU()
          (spatial_gating_unit): AttentionModule(
            (conv0): Conv2d(320, 320, kernel_size=(5, 5), stride=(1, 1), padding=(2, 2), groups=320)
            (conv_spatial): Conv2d(320, 320, kernel_size=(7, 7), stride=(1, 1), padding=(9, 9), dilation=(3, 3), groups=320)
            (conv1): Conv2d(320, 320, kernel_size=(1, 1), stride=(1, 1))
          )
          (proj_2): Conv2d(320, 320, kernel_size=(1, 1), stride=(1, 1))
        )
        (drop_path): DropPath()
        (norm2): BatchNorm2d(320, eps=1e-05, momentum=0.1, affine=True, track_running_stats=True)
        (mlp): Mlp(
          (fc1): Conv2d(320, 1280, kernel_size=(1, 1), stride=(1, 1))
          (dwconv): DWConv(
            (dwconv): Conv2d(1280, 1280, kernel_size=(3, 3), stride=(1, 1), padding=(1, 1), groups=1280)
          )
          (act): GELU()
          (fc2): Conv2d(1280, 320, kernel_size=(1, 1), stride=(1, 1))
          (drop): Dropout(p=0.0, inplace=False)
        )
      )
      (17): Block(
        (norm1): BatchNorm2d(320, eps=1e-05, momentum=0.1, affine=True, track_running_stats=True)
        (attn): SpatialAttention(
          (proj_1): Conv2d(320, 320, kernel_size=(1, 1), stride=(1, 1))
          (activation): GELU()
          (spatial_gating_unit): AttentionModule(
            (conv0): Conv2d(320, 320, kernel_size=(5, 5), stride=(1, 1), padding=(2, 2), groups=320)
            (conv_spatial): Conv2d(320, 320, kernel_size=(7, 7), stride=(1, 1), padding=(9, 9), dilation=(3, 3), groups=320)
            (conv1): Conv2d(320, 320, kernel_size=(1, 1), stride=(1, 1))
          )
          (proj_2): Conv2d(320, 320, kernel_size=(1, 1), stride=(1, 1))
        )
        (drop_path): DropPath()
        (norm2): BatchNorm2d(320, eps=1e-05, momentum=0.1, affine=True, track_running_stats=True)
        (mlp): Mlp(
          (fc1): Conv2d(320, 1280, kernel_size=(1, 1), stride=(1, 1))
          (dwconv): DWConv(
            (dwconv): Conv2d(1280, 1280, kernel_size=(3, 3), stride=(1, 1), padding=(1, 1), groups=1280)
          )
          (act): GELU()
          (fc2): Conv2d(1280, 320, kernel_size=(1, 1), stride=(1, 1))
          (drop): Dropout(p=0.0, inplace=False)
        )
      )
      (18): Block(
        (norm1): BatchNorm2d(320, eps=1e-05, momentum=0.1, affine=True, track_running_stats=True)
        (attn): SpatialAttention(
          (proj_1): Conv2d(320, 320, kernel_size=(1, 1), stride=(1, 1))
          (activation): GELU()
          (spatial_gating_unit): AttentionModule(
            (conv0): Conv2d(320, 320, kernel_size=(5, 5), stride=(1, 1), padding=(2, 2), groups=320)
            (conv_spatial): Conv2d(320, 320, kernel_size=(7, 7), stride=(1, 1), padding=(9, 9), dilation=(3, 3), groups=320)
            (conv1): Conv2d(320, 320, kernel_size=(1, 1), stride=(1, 1))
          )
          (proj_2): Conv2d(320, 320, kernel_size=(1, 1), stride=(1, 1))
        )
        (drop_path): DropPath()
        (norm2): BatchNorm2d(320, eps=1e-05, momentum=0.1, affine=True, track_running_stats=True)
        (mlp): Mlp(
          (fc1): Conv2d(320, 1280, kernel_size=(1, 1), stride=(1, 1))
          (dwconv): DWConv(
            (dwconv): Conv2d(1280, 1280, kernel_size=(3, 3), stride=(1, 1), padding=(1, 1), groups=1280)
          )
          (act): GELU()
          (fc2): Conv2d(1280, 320, kernel_size=(1, 1), stride=(1, 1))
          (drop): Dropout(p=0.0, inplace=False)
        )
      )
      (19): Block(
        (norm1): BatchNorm2d(320, eps=1e-05, momentum=0.1, affine=True, track_running_stats=True)
        (attn): SpatialAttention(
          (proj_1): Conv2d(320, 320, kernel_size=(1, 1), stride=(1, 1))
          (activation): GELU()
          (spatial_gating_unit): AttentionModule(
            (conv0): Conv2d(320, 320, kernel_size=(5, 5), stride=(1, 1), padding=(2, 2), groups=320)
            (conv_spatial): Conv2d(320, 320, kernel_size=(7, 7), stride=(1, 1), padding=(9, 9), dilation=(3, 3), groups=320)
            (conv1): Conv2d(320, 320, kernel_size=(1, 1), stride=(1, 1))
          )
          (proj_2): Conv2d(320, 320, kernel_size=(1, 1), stride=(1, 1))
        )
        (drop_path): DropPath()
        (norm2): BatchNorm2d(320, eps=1e-05, momentum=0.1, affine=True, track_running_stats=True)
        (mlp): Mlp(
          (fc1): Conv2d(320, 1280, kernel_size=(1, 1), stride=(1, 1))
          (dwconv): DWConv(
            (dwconv): Conv2d(1280, 1280, kernel_size=(3, 3), stride=(1, 1), padding=(1, 1), groups=1280)
          )
          (act): GELU()
          (fc2): Conv2d(1280, 320, kernel_size=(1, 1), stride=(1, 1))
          (drop): Dropout(p=0.0, inplace=False)
        )
      )
      (20): Block(
        (norm1): BatchNorm2d(320, eps=1e-05, momentum=0.1, affine=True, track_running_stats=True)
        (attn): SpatialAttention(
          (proj_1): Conv2d(320, 320, kernel_size=(1, 1), stride=(1, 1))
          (activation): GELU()
          (spatial_gating_unit): AttentionModule(
            (conv0): Conv2d(320, 320, kernel_size=(5, 5), stride=(1, 1), padding=(2, 2), groups=320)
            (conv_spatial): Conv2d(320, 320, kernel_size=(7, 7), stride=(1, 1), padding=(9, 9), dilation=(3, 3), groups=320)
            (conv1): Conv2d(320, 320, kernel_size=(1, 1), stride=(1, 1))
          )
          (proj_2): Conv2d(320, 320, kernel_size=(1, 1), stride=(1, 1))
        )
        (drop_path): DropPath()
        (norm2): BatchNorm2d(320, eps=1e-05, momentum=0.1, affine=True, track_running_stats=True)
        (mlp): Mlp(
          (fc1): Conv2d(320, 1280, kernel_size=(1, 1), stride=(1, 1))
          (dwconv): DWConv(
            (dwconv): Conv2d(1280, 1280, kernel_size=(3, 3), stride=(1, 1), padding=(1, 1), groups=1280)
          )
          (act): GELU()
          (fc2): Conv2d(1280, 320, kernel_size=(1, 1), stride=(1, 1))
          (drop): Dropout(p=0.0, inplace=False)
        )
      )
      (21): Block(
        (norm1): BatchNorm2d(320, eps=1e-05, momentum=0.1, affine=True, track_running_stats=True)
        (attn): SpatialAttention(
          (proj_1): Conv2d(320, 320, kernel_size=(1, 1), stride=(1, 1))
          (activation): GELU()
          (spatial_gating_unit): AttentionModule(
            (conv0): Conv2d(320, 320, kernel_size=(5, 5), stride=(1, 1), padding=(2, 2), groups=320)
            (conv_spatial): Conv2d(320, 320, kernel_size=(7, 7), stride=(1, 1), padding=(9, 9), dilation=(3, 3), groups=320)
            (conv1): Conv2d(320, 320, kernel_size=(1, 1), stride=(1, 1))
          )
          (proj_2): Conv2d(320, 320, kernel_size=(1, 1), stride=(1, 1))
        )
        (drop_path): DropPath()
        (norm2): BatchNorm2d(320, eps=1e-05, momentum=0.1, affine=True, track_running_stats=True)
        (mlp): Mlp(
          (fc1): Conv2d(320, 1280, kernel_size=(1, 1), stride=(1, 1))
          (dwconv): DWConv(
            (dwconv): Conv2d(1280, 1280, kernel_size=(3, 3), stride=(1, 1), padding=(1, 1), groups=1280)
          )
          (act): GELU()
          (fc2): Conv2d(1280, 320, kernel_size=(1, 1), stride=(1, 1))
          (drop): Dropout(p=0.0, inplace=False)
        )
      )
      (22): Block(
        (norm1): BatchNorm2d(320, eps=1e-05, momentum=0.1, affine=True, track_running_stats=True)
        (attn): SpatialAttention(
          (proj_1): Conv2d(320, 320, kernel_size=(1, 1), stride=(1, 1))
          (activation): GELU()
          (spatial_gating_unit): AttentionModule(
            (conv0): Conv2d(320, 320, kernel_size=(5, 5), stride=(1, 1), padding=(2, 2), groups=320)
            (conv_spatial): Conv2d(320, 320, kernel_size=(7, 7), stride=(1, 1), padding=(9, 9), dilation=(3, 3), groups=320)
            (conv1): Conv2d(320, 320, kernel_size=(1, 1), stride=(1, 1))
          )
          (proj_2): Conv2d(320, 320, kernel_size=(1, 1), stride=(1, 1))
        )
        (drop_path): DropPath()
        (norm2): BatchNorm2d(320, eps=1e-05, momentum=0.1, affine=True, track_running_stats=True)
        (mlp): Mlp(
          (fc1): Conv2d(320, 1280, kernel_size=(1, 1), stride=(1, 1))
          (dwconv): DWConv(
            (dwconv): Conv2d(1280, 1280, kernel_size=(3, 3), stride=(1, 1), padding=(1, 1), groups=1280)
          )
          (act): GELU()
          (fc2): Conv2d(1280, 320, kernel_size=(1, 1), stride=(1, 1))
          (drop): Dropout(p=0.0, inplace=False)
        )
      )
      (23): Block(
        (norm1): BatchNorm2d(320, eps=1e-05, momentum=0.1, affine=True, track_running_stats=True)
        (attn): SpatialAttention(
          (proj_1): Conv2d(320, 320, kernel_size=(1, 1), stride=(1, 1))
          (activation): GELU()
          (spatial_gating_unit): AttentionModule(
            (conv0): Conv2d(320, 320, kernel_size=(5, 5), stride=(1, 1), padding=(2, 2), groups=320)
            (conv_spatial): Conv2d(320, 320, kernel_size=(7, 7), stride=(1, 1), padding=(9, 9), dilation=(3, 3), groups=320)
            (conv1): Conv2d(320, 320, kernel_size=(1, 1), stride=(1, 1))
          )
          (proj_2): Conv2d(320, 320, kernel_size=(1, 1), stride=(1, 1))
        )
        (drop_path): DropPath()
        (norm2): BatchNorm2d(320, eps=1e-05, momentum=0.1, affine=True, track_running_stats=True)
        (mlp): Mlp(
          (fc1): Conv2d(320, 1280, kernel_size=(1, 1), stride=(1, 1))
          (dwconv): DWConv(
            (dwconv): Conv2d(1280, 1280, kernel_size=(3, 3), stride=(1, 1), padding=(1, 1), groups=1280)
          )
          (act): GELU()
          (fc2): Conv2d(1280, 320, kernel_size=(1, 1), stride=(1, 1))
          (drop): Dropout(p=0.0, inplace=False)
        )
      )
      (24): Block(
        (norm1): BatchNorm2d(320, eps=1e-05, momentum=0.1, affine=True, track_running_stats=True)
        (attn): SpatialAttention(
          (proj_1): Conv2d(320, 320, kernel_size=(1, 1), stride=(1, 1))
          (activation): GELU()
          (spatial_gating_unit): AttentionModule(
            (conv0): Conv2d(320, 320, kernel_size=(5, 5), stride=(1, 1), padding=(2, 2), groups=320)
            (conv_spatial): Conv2d(320, 320, kernel_size=(7, 7), stride=(1, 1), padding=(9, 9), dilation=(3, 3), groups=320)
            (conv1): Conv2d(320, 320, kernel_size=(1, 1), stride=(1, 1))
          )
          (proj_2): Conv2d(320, 320, kernel_size=(1, 1), stride=(1, 1))
        )
        (drop_path): DropPath()
        (norm2): BatchNorm2d(320, eps=1e-05, momentum=0.1, affine=True, track_running_stats=True)
        (mlp): Mlp(
          (fc1): Conv2d(320, 1280, kernel_size=(1, 1), stride=(1, 1))
          (dwconv): DWConv(
            (dwconv): Conv2d(1280, 1280, kernel_size=(3, 3), stride=(1, 1), padding=(1, 1), groups=1280)
          )
          (act): GELU()
          (fc2): Conv2d(1280, 320, kernel_size=(1, 1), stride=(1, 1))
          (drop): Dropout(p=0.0, inplace=False)
        )
      )
      (25): Block(
        (norm1): BatchNorm2d(320, eps=1e-05, momentum=0.1, affine=True, track_running_stats=True)
        (attn): SpatialAttention(
          (proj_1): Conv2d(320, 320, kernel_size=(1, 1), stride=(1, 1))
          (activation): GELU()
          (spatial_gating_unit): AttentionModule(
            (conv0): Conv2d(320, 320, kernel_size=(5, 5), stride=(1, 1), padding=(2, 2), groups=320)
            (conv_spatial): Conv2d(320, 320, kernel_size=(7, 7), stride=(1, 1), padding=(9, 9), dilation=(3, 3), groups=320)
            (conv1): Conv2d(320, 320, kernel_size=(1, 1), stride=(1, 1))
          )
          (proj_2): Conv2d(320, 320, kernel_size=(1, 1), stride=(1, 1))
        )
        (drop_path): DropPath()
        (norm2): BatchNorm2d(320, eps=1e-05, momentum=0.1, affine=True, track_running_stats=True)
        (mlp): Mlp(
          (fc1): Conv2d(320, 1280, kernel_size=(1, 1), stride=(1, 1))
          (dwconv): DWConv(
            (dwconv): Conv2d(1280, 1280, kernel_size=(3, 3), stride=(1, 1), padding=(1, 1), groups=1280)
          )
          (act): GELU()
          (fc2): Conv2d(1280, 320, kernel_size=(1, 1), stride=(1, 1))
          (drop): Dropout(p=0.0, inplace=False)
        )
      )
      (26): Block(
        (norm1): BatchNorm2d(320, eps=1e-05, momentum=0.1, affine=True, track_running_stats=True)
        (attn): SpatialAttention(
          (proj_1): Conv2d(320, 320, kernel_size=(1, 1), stride=(1, 1))
          (activation): GELU()
          (spatial_gating_unit): AttentionModule(
            (conv0): Conv2d(320, 320, kernel_size=(5, 5), stride=(1, 1), padding=(2, 2), groups=320)
            (conv_spatial): Conv2d(320, 320, kernel_size=(7, 7), stride=(1, 1), padding=(9, 9), dilation=(3, 3), groups=320)
            (conv1): Conv2d(320, 320, kernel_size=(1, 1), stride=(1, 1))
          )
          (proj_2): Conv2d(320, 320, kernel_size=(1, 1), stride=(1, 1))
        )
        (drop_path): DropPath()
        (norm2): BatchNorm2d(320, eps=1e-05, momentum=0.1, affine=True, track_running_stats=True)
        (mlp): Mlp(
          (fc1): Conv2d(320, 1280, kernel_size=(1, 1), stride=(1, 1))
          (dwconv): DWConv(
            (dwconv): Conv2d(1280, 1280, kernel_size=(3, 3), stride=(1, 1), padding=(1, 1), groups=1280)
          )
          (act): GELU()
          (fc2): Conv2d(1280, 320, kernel_size=(1, 1), stride=(1, 1))
          (drop): Dropout(p=0.0, inplace=False)
        )
      )
    )
    (norm3): LayerNorm((320,), eps=1e-06, elementwise_affine=True)
    (patch_embed4): OverlapPatchEmbed(
      (proj): Conv2d(320, 512, kernel_size=(3, 3), stride=(2, 2), padding=(1, 1))
      (norm): BatchNorm2d(512, eps=1e-05, momentum=0.1, affine=True, track_running_stats=True)
    )
    (block4): ModuleList(
      (0): Block(
        (norm1): BatchNorm2d(512, eps=1e-05, momentum=0.1, affine=True, track_running_stats=True)
        (attn): SpatialAttention(
          (proj_1): Conv2d(512, 512, kernel_size=(1, 1), stride=(1, 1))
          (activation): GELU()
          (spatial_gating_unit): AttentionModule(
            (conv0): Conv2d(512, 512, kernel_size=(5, 5), stride=(1, 1), padding=(2, 2), groups=512)
            (conv_spatial): Conv2d(512, 512, kernel_size=(7, 7), stride=(1, 1), padding=(9, 9), dilation=(3, 3), groups=512)
            (conv1): Conv2d(512, 512, kernel_size=(1, 1), stride=(1, 1))
          )
          (proj_2): Conv2d(512, 512, kernel_size=(1, 1), stride=(1, 1))
        )
        (drop_path): DropPath()
        (norm2): BatchNorm2d(512, eps=1e-05, momentum=0.1, affine=True, track_running_stats=True)
        (mlp): Mlp(
          (fc1): Conv2d(512, 2048, kernel_size=(1, 1), stride=(1, 1))
          (dwconv): DWConv(
            (dwconv): Conv2d(2048, 2048, kernel_size=(3, 3), stride=(1, 1), padding=(1, 1), groups=2048)
          )
          (act): GELU()
          (fc2): Conv2d(2048, 512, kernel_size=(1, 1), stride=(1, 1))
          (drop): Dropout(p=0.0, inplace=False)
        )
      )
      (1): Block(
        (norm1): BatchNorm2d(512, eps=1e-05, momentum=0.1, affine=True, track_running_stats=True)
        (attn): SpatialAttention(
          (proj_1): Conv2d(512, 512, kernel_size=(1, 1), stride=(1, 1))
          (activation): GELU()
          (spatial_gating_unit): AttentionModule(
            (conv0): Conv2d(512, 512, kernel_size=(5, 5), stride=(1, 1), padding=(2, 2), groups=512)
            (conv_spatial): Conv2d(512, 512, kernel_size=(7, 7), stride=(1, 1), padding=(9, 9), dilation=(3, 3), groups=512)
            (conv1): Conv2d(512, 512, kernel_size=(1, 1), stride=(1, 1))
          )
          (proj_2): Conv2d(512, 512, kernel_size=(1, 1), stride=(1, 1))
        )
        (drop_path): DropPath()
        (norm2): BatchNorm2d(512, eps=1e-05, momentum=0.1, affine=True, track_running_stats=True)
        (mlp): Mlp(
          (fc1): Conv2d(512, 2048, kernel_size=(1, 1), stride=(1, 1))
          (dwconv): DWConv(
            (dwconv): Conv2d(2048, 2048, kernel_size=(3, 3), stride=(1, 1), padding=(1, 1), groups=2048)
          )
          (act): GELU()
          (fc2): Conv2d(2048, 512, kernel_size=(1, 1), stride=(1, 1))
          (drop): Dropout(p=0.0, inplace=False)
        )
      )
      (2): Block(
        (norm1): BatchNorm2d(512, eps=1e-05, momentum=0.1, affine=True, track_running_stats=True)
        (attn): SpatialAttention(
          (proj_1): Conv2d(512, 512, kernel_size=(1, 1), stride=(1, 1))
          (activation): GELU()
          (spatial_gating_unit): AttentionModule(
            (conv0): Conv2d(512, 512, kernel_size=(5, 5), stride=(1, 1), padding=(2, 2), groups=512)
            (conv_spatial): Conv2d(512, 512, kernel_size=(7, 7), stride=(1, 1), padding=(9, 9), dilation=(3, 3), groups=512)
            (conv1): Conv2d(512, 512, kernel_size=(1, 1), stride=(1, 1))
          )
          (proj_2): Conv2d(512, 512, kernel_size=(1, 1), stride=(1, 1))
        )
        (drop_path): DropPath()
        (norm2): BatchNorm2d(512, eps=1e-05, momentum=0.1, affine=True, track_running_stats=True)
        (mlp): Mlp(
          (fc1): Conv2d(512, 2048, kernel_size=(1, 1), stride=(1, 1))
          (dwconv): DWConv(
            (dwconv): Conv2d(2048, 2048, kernel_size=(3, 3), stride=(1, 1), padding=(1, 1), groups=2048)
          )
          (act): GELU()
          (fc2): Conv2d(2048, 512, kernel_size=(1, 1), stride=(1, 1))
          (drop): Dropout(p=0.0, inplace=False)
        )
      )
    )
    (norm4): LayerNorm((512,), eps=1e-06, elementwise_affine=True)
  )
  (decode_head): UPerHead(
    input_transform=multiple_select, ignore_index=255, align_corners=False
    (loss_decode): CrossEntropyLoss()
    (conv_seg): Conv2d(512, 2, kernel_size=(1, 1), stride=(1, 1))
    (dropout): Dropout2d(p=0.1, inplace=False)
    (psp_modules): PPM(
      (0): Sequential(
        (0): AdaptiveAvgPool2d(output_size=1)
        (1): ConvModule(
          (conv): Conv2d(512, 512, kernel_size=(1, 1), stride=(1, 1), bias=False)
          (bn): BatchNorm2d(512, eps=1e-05, momentum=0.1, affine=True, track_running_stats=True)
          (activate): ReLU(inplace=True)
        )
      )
      (1): Sequential(
        (0): AdaptiveAvgPool2d(output_size=2)
        (1): ConvModule(
          (conv): Conv2d(512, 512, kernel_size=(1, 1), stride=(1, 1), bias=False)
          (bn): BatchNorm2d(512, eps=1e-05, momentum=0.1, affine=True, track_running_stats=True)
          (activate): ReLU(inplace=True)
        )
      )
      (2): Sequential(
        (0): AdaptiveAvgPool2d(output_size=3)
        (1): ConvModule(
          (conv): Conv2d(512, 512, kernel_size=(1, 1), stride=(1, 1), bias=False)
          (bn): BatchNorm2d(512, eps=1e-05, momentum=0.1, affine=True, track_running_stats=True)
          (activate): ReLU(inplace=True)
        )
      )
      (3): Sequential(
        (0): AdaptiveAvgPool2d(output_size=6)
        (1): ConvModule(
          (conv): Conv2d(512, 512, kernel_size=(1, 1), stride=(1, 1), bias=False)
          (bn): BatchNorm2d(512, eps=1e-05, momentum=0.1, affine=True, track_running_stats=True)
          (activate): ReLU(inplace=True)
        )
      )
    )
    (bottleneck): ConvModule(
      (conv): Conv2d(2560, 512, kernel_size=(3, 3), stride=(1, 1), padding=(1, 1), bias=False)
      (bn): BatchNorm2d(512, eps=1e-05, momentum=0.1, affine=True, track_running_stats=True)
      (activate): ReLU(inplace=True)
    )
    (lateral_convs): ModuleList(
      (0): ConvModule(
        (conv): Conv2d(64, 512, kernel_size=(1, 1), stride=(1, 1), bias=False)
        (bn): BatchNorm2d(512, eps=1e-05, momentum=0.1, affine=True, track_running_stats=True)
        (activate): ReLU()
      )
      (1): ConvModule(
        (conv): Conv2d(128, 512, kernel_size=(1, 1), stride=(1, 1), bias=False)
        (bn): BatchNorm2d(512, eps=1e-05, momentum=0.1, affine=True, track_running_stats=True)
        (activate): ReLU()
      )
      (2): ConvModule(
        (conv): Conv2d(320, 512, kernel_size=(1, 1), stride=(1, 1), bias=False)
        (bn): BatchNorm2d(512, eps=1e-05, momentum=0.1, affine=True, track_running_stats=True)
        (activate): ReLU()
      )
    )
    (fpn_convs): ModuleList(
      (0): ConvModule(
        (conv): Conv2d(512, 512, kernel_size=(3, 3), stride=(1, 1), padding=(1, 1), bias=False)
        (bn): BatchNorm2d(512, eps=1e-05, momentum=0.1, affine=True, track_running_stats=True)
        (activate): ReLU()
      )
      (1): ConvModule(
        (conv): Conv2d(512, 512, kernel_size=(3, 3), stride=(1, 1), padding=(1, 1), bias=False)
        (bn): BatchNorm2d(512, eps=1e-05, momentum=0.1, affine=True, track_running_stats=True)
        (activate): ReLU()
      )
      (2): ConvModule(
        (conv): Conv2d(512, 512, kernel_size=(3, 3), stride=(1, 1), padding=(1, 1), bias=False)
        (bn): BatchNorm2d(512, eps=1e-05, momentum=0.1, affine=True, track_running_stats=True)
        (activate): ReLU()
      )
    )
    (fpn_bottleneck): ConvModule(
      (conv): Conv2d(2048, 512, kernel_size=(3, 3), stride=(1, 1), padding=(1, 1), bias=False)
      (bn): BatchNorm2d(512, eps=1e-05, momentum=0.1, affine=True, track_running_stats=True)
      (activate): ReLU(inplace=True)
    )
  )
  (auxiliary_head): FCNHead(
    input_transform=None, ignore_index=255, align_corners=False
    (loss_decode): CrossEntropyLoss()
    (conv_seg): Conv2d(256, 2, kernel_size=(1, 1), stride=(1, 1))
    (dropout): Dropout2d(p=0.1, inplace=False)
    (convs): Sequential(
      (0): ConvModule(
        (conv): Conv2d(320, 256, kernel_size=(3, 3), stride=(1, 1), padding=(1, 1), bias=False)
        (bn): BatchNorm2d(256, eps=1e-05, momentum=0.1, affine=True, track_running_stats=True)
        (activate): ReLU(inplace=True)
      )
    )
  )
)
2022-03-07 08:52:49,738 - mmseg - INFO - Loaded 1764 images
fatal: not a git repository (or any parent up to mount point /)
Stopping at filesystem boundary (GIT_DISCOVERY_ACROSS_FILESYSTEM not set).
2022-03-07 08:52:54,594 - mmseg - INFO - Loaded 440 images
2022-03-07 08:52:54,595 - mmseg - INFO - Start running, host: zhulifu@htai, work_dir: /media/DATA/zhulifu/bin/VAN-Segmentation-main-henei2lei/tools/rsxl-henei-128
…
